…
2022-03-25 22:19:12,236:INFO: Image normalization: 'Normalize(mean=[0.9850790616518345, 0.9850790616518345, 0.9850790616518345], std=[0.10844256129585952, 0.10844256129585952, 0.10844256129585952])'
2022-03-25 22:19:12,236:INFO: Loading image dataset from '../datasets/UVP5_processed_sep_2021/'
2022-03-25 22:19:12,937:INFO: Creating dataloaders
2022-03-25 22:19:14,711:INFO: Initializing model
2022-03-25 22:19:15,607:INFO: ----------------------------------------------------------------
        Layer (type)               Output Shape         Param #
================================================================
            Conv2d-1           [64, 96, 32, 32]           4,704
         LayerNorm-2           [64, 96, 32, 32]             192
            Conv2d-3           [64, 96, 32, 32]           4,800
         LayerNorm-4           [64, 32, 32, 96]             192
            Linear-5          [64, 32, 32, 384]          37,248
              GELU-6          [64, 32, 32, 384]               0
            Linear-7           [64, 32, 32, 96]          36,960
          Identity-8           [64, 96, 32, 32]               0
             Block-9           [64, 96, 32, 32]               0
           Conv2d-10           [64, 96, 32, 32]           4,800
        LayerNorm-11           [64, 32, 32, 96]             192
           Linear-12          [64, 32, 32, 384]          37,248
             GELU-13          [64, 32, 32, 384]               0
           Linear-14           [64, 32, 32, 96]          36,960
         Identity-15           [64, 96, 32, 32]               0
            Block-16           [64, 96, 32, 32]               0
           Conv2d-17           [64, 96, 32, 32]           4,800
        LayerNorm-18           [64, 32, 32, 96]             192
           Linear-19          [64, 32, 32, 384]          37,248
             GELU-20          [64, 32, 32, 384]               0
           Linear-21           [64, 32, 32, 96]          36,960
         Identity-22           [64, 96, 32, 32]               0
            Block-23           [64, 96, 32, 32]               0
        LayerNorm-24           [64, 96, 32, 32]             192
           Conv2d-25          [64, 192, 16, 16]          73,920
           Conv2d-26          [64, 192, 16, 16]           9,600
        LayerNorm-27          [64, 16, 16, 192]             384
           Linear-28          [64, 16, 16, 768]         148,224
             GELU-29          [64, 16, 16, 768]               0
           Linear-30          [64, 16, 16, 192]         147,648
         Identity-31          [64, 192, 16, 16]               0
            Block-32          [64, 192, 16, 16]               0
           Conv2d-33          [64, 192, 16, 16]           9,600
        LayerNorm-34          [64, 16, 16, 192]             384
           Linear-35          [64, 16, 16, 768]         148,224
             GELU-36          [64, 16, 16, 768]               0
           Linear-37          [64, 16, 16, 192]         147,648
         Identity-38          [64, 192, 16, 16]               0
            Block-39          [64, 192, 16, 16]               0
           Conv2d-40          [64, 192, 16, 16]           9,600
        LayerNorm-41          [64, 16, 16, 192]             384
           Linear-42          [64, 16, 16, 768]         148,224
             GELU-43          [64, 16, 16, 768]               0
           Linear-44          [64, 16, 16, 192]         147,648
         Identity-45          [64, 192, 16, 16]               0
            Block-46          [64, 192, 16, 16]               0
        LayerNorm-47          [64, 192, 16, 16]             384
           Conv2d-48            [64, 384, 8, 8]         295,296
           Conv2d-49            [64, 384, 8, 8]          19,200
        LayerNorm-50            [64, 8, 8, 384]             768
           Linear-51           [64, 8, 8, 1536]         591,360
             GELU-52           [64, 8, 8, 1536]               0
           Linear-53            [64, 8, 8, 384]         590,208
         Identity-54            [64, 384, 8, 8]               0
            Block-55            [64, 384, 8, 8]               0
           Conv2d-56            [64, 384, 8, 8]          19,200
        LayerNorm-57            [64, 8, 8, 384]             768
           Linear-58           [64, 8, 8, 1536]         591,360
             GELU-59           [64, 8, 8, 1536]               0
           Linear-60            [64, 8, 8, 384]         590,208
         Identity-61            [64, 384, 8, 8]               0
            Block-62            [64, 384, 8, 8]               0
           Conv2d-63            [64, 384, 8, 8]          19,200
        LayerNorm-64            [64, 8, 8, 384]             768
           Linear-65           [64, 8, 8, 1536]         591,360
             GELU-66           [64, 8, 8, 1536]               0
           Linear-67            [64, 8, 8, 384]         590,208
         Identity-68            [64, 384, 8, 8]               0
            Block-69            [64, 384, 8, 8]               0
           Conv2d-70            [64, 384, 8, 8]          19,200
        LayerNorm-71            [64, 8, 8, 384]             768
           Linear-72           [64, 8, 8, 1536]         591,360
             GELU-73           [64, 8, 8, 1536]               0
           Linear-74            [64, 8, 8, 384]         590,208
         Identity-75            [64, 384, 8, 8]               0
            Block-76            [64, 384, 8, 8]               0
           Conv2d-77            [64, 384, 8, 8]          19,200
        LayerNorm-78            [64, 8, 8, 384]             768
           Linear-79           [64, 8, 8, 1536]         591,360
             GELU-80           [64, 8, 8, 1536]               0
           Linear-81            [64, 8, 8, 384]         590,208
         Identity-82            [64, 384, 8, 8]               0
            Block-83            [64, 384, 8, 8]               0
           Conv2d-84            [64, 384, 8, 8]          19,200
        LayerNorm-85            [64, 8, 8, 384]             768
           Linear-86           [64, 8, 8, 1536]         591,360
             GELU-87           [64, 8, 8, 1536]               0
           Linear-88            [64, 8, 8, 384]         590,208
         Identity-89            [64, 384, 8, 8]               0
            Block-90            [64, 384, 8, 8]               0
           Conv2d-91            [64, 384, 8, 8]          19,200
        LayerNorm-92            [64, 8, 8, 384]             768
           Linear-93           [64, 8, 8, 1536]         591,360
             GELU-94           [64, 8, 8, 1536]               0
           Linear-95            [64, 8, 8, 384]         590,208
         Identity-96            [64, 384, 8, 8]               0
            Block-97            [64, 384, 8, 8]               0
           Conv2d-98            [64, 384, 8, 8]          19,200
        LayerNorm-99            [64, 8, 8, 384]             768
          Linear-100           [64, 8, 8, 1536]         591,360
            GELU-101           [64, 8, 8, 1536]               0
          Linear-102            [64, 8, 8, 384]         590,208
        Identity-103            [64, 384, 8, 8]               0
           Block-104            [64, 384, 8, 8]               0
          Conv2d-105            [64, 384, 8, 8]          19,200
       LayerNorm-106            [64, 8, 8, 384]             768
          Linear-107           [64, 8, 8, 1536]         591,360
            GELU-108           [64, 8, 8, 1536]               0
          Linear-109            [64, 8, 8, 384]         590,208
        Identity-110            [64, 384, 8, 8]               0
           Block-111            [64, 384, 8, 8]               0
       LayerNorm-112            [64, 384, 8, 8]             768
          Conv2d-113            [64, 768, 4, 4]       1,180,416
          Conv2d-114            [64, 768, 4, 4]          38,400
       LayerNorm-115            [64, 4, 4, 768]           1,536
          Linear-116           [64, 4, 4, 3072]       2,362,368
            GELU-117           [64, 4, 4, 3072]               0
          Linear-118            [64, 4, 4, 768]       2,360,064
        Identity-119            [64, 768, 4, 4]               0
           Block-120            [64, 768, 4, 4]               0
          Conv2d-121            [64, 768, 4, 4]          38,400
       LayerNorm-122            [64, 4, 4, 768]           1,536
          Linear-123           [64, 4, 4, 3072]       2,362,368
            GELU-124           [64, 4, 4, 3072]               0
          Linear-125            [64, 4, 4, 768]       2,360,064
        Identity-126            [64, 768, 4, 4]               0
           Block-127            [64, 768, 4, 4]               0
          Conv2d-128            [64, 768, 4, 4]          38,400
       LayerNorm-129            [64, 4, 4, 768]           1,536
          Linear-130           [64, 4, 4, 3072]       2,362,368
            GELU-131           [64, 4, 4, 3072]               0
          Linear-132            [64, 4, 4, 768]       2,360,064
        Identity-133            [64, 768, 4, 4]               0
           Block-134            [64, 768, 4, 4]               0
       LayerNorm-135                  [64, 768]           1,536
          Linear-136                  [64, 256]         196,864
            ReLU-137                  [64, 256]               0
         Dropout-138                  [64, 256]               0
          Linear-139                   [64, 42]          10,794
        ConvNeXt-140                   [64, 42]               0
    convnextTiny-141                   [64, 42]               0
================================================================
Total params: 28,021,162
Trainable params: 28,021,162
Non-trainable params: 0
----------------------------------------------------------------
Input size (MB): 1020.00
Forward/backward pass size (MB): 4668.81
Params size (MB): 106.89
Estimated Total Size (MB): 5795.70
----------------------------------------------------------------

…
